ml_code/saved_models/deep_model.pt (torch, 82801 bytes, 3 tensors)

weight f4 [180, 109]
0.0061198873 -0.0043902947 -0.06366628 0.0999326 -0.011674706 -0.038934223 0.14748165 0.07300245
0.054156866 0.029820722 0.0022909339 0.10387369 0.10552065 0.08077735 0.011471372 0.020781403
0.10070261 -0.055520885 0.09521775 -0.041535567 0.08328934 0.03410606 0.055709507 0.012891404
0.07128395 0.0976069 0.10742901 0.04886201 -0.0768679 -0.06950716 -0.03819368 -0.017651131
0.05491614 0.014194372 0.08125761 0.098830834 -0.033547062 0.05390295 0.08129426 0.0062083825
0.0580922 -0.025025554 0.030955672 0.007286062 0.020195192 0.09223812 0.0523548 0.11760925
0.07545737 0.09392321 -0.04439865 0.024154518 -0.06303501 0.11642264 -0.029545572 0.010013841
0.041846737 -0.022785192 0.0770881 0.012502347 0.0098691 0.03536646 0.026686374 0.014457127
-0.017468974 0.028051365 0.044425704 -0.060758047 0.061263125 -0.0038250992 0.074795626 -0.027445596
0.07256988 0.0452651 -0.09288757 -0.06350248 0.08210661 -0.03139912 -0.065173924 0.10282871
0.109237626 0.05233832 -0.008656625 0.016024752 -0.010655835 0.0638683 -0.021113642 -0.11517798
-0.010183606 0.13304842 -0.017594662 0.09882303 -0.042040486 0.027213588 -0.04459982 0.10804821
-0.041064143 0.018144956 0.08416583 0.12033352 0.07265349 0.10371944 -0.010067997 -0.016364325
0.03868355 0.08333208 0.044329066 0.035400867 0.062258743 0.07872857 -0.018502364 -0.03725124
0.04644311 0.052306537 -0.049051195 -0.05206232 -0.015070897 0.047061592 0.058543626 0.11208074
-0.08320659 0.05027795 0.036440555 -0.016260164 0.07721644 -0.050013278 -0.08497265 -0.058406565
0.06435731 -0.03877348 0.084481664 -0.02949546 0.04815086 -0.037272267 -0.08625508 -0.02369187
0.03798689 -0.0635342 0.038523417 -0.052351806 -0.0703464 -0.07973285 -0.048504196 0.039440505
-0.069728844 -0.101092465 -0.030979106 -0.02309478 -0.060112085 0.016336044 0.06719139 0.027160408
0.09382838 0.036859844 -0.08452065 0.06916224 -0.1033277 0.07941666 0.028368106 -0.0805584
0.11835461 -0.047434803 -0.08600927 -0.0070921136 -0.045869764 0.054822527 0.06722215 0.09370572
-0.039757386 1.0764721e-05 -0.031128092 -0.06376736 -0.054198112 -0.08847931 0.00882576 0.003330872
-0.01675257 0.053347234 0.014579614 -0.09145451 -0.014550424 -0.06447553 -0.0600395 0.067702755
-0.045940954 0.070235856 0.08032518 0.0030647772 0.07457947 0.059490014 0.08630493 0.0112627335
-0.10420141 -0.01264035 -0.03778985 0.06876165 0.02655669 0.013501258 0.07751395 0.13608475
0.016564937 -0.01182174 -0.031767324 0.092233054 0.09601127 -0.075394586 -0.022641435 -0.015810834
0.020018872 0.0052177613 0.057212546 0.05993418 -0.062012468 -0.03507538 -0.06048032 0.13477278
-0.048402064 -0.08761555 -0.0402139 0.044512358 0.035706624 -0.012821684 -0.014144515 0.035420038
0.11864152 0.066148154 0.060211957 0.091430955 -0.01890726 0.07296887 0.038030993 -0.012457618
-0.041237883 -0.006919651 0.03546284 0.055835694 0.095861755 0.06051219 -0.02448614 -0.10841208
0.10287334 -0.008588535 0.098986834 -0.021486795 -0.059877858 0.03156063 0.014104808 -0.025496418
0.07632477 0.044493124 0.0022718706 -0.07554505 -0.08263048 0.14791529 -0.018554077 -0.07661297
00000000: 5689 c83b 76dc 8fbb 7763 82bd 77a9 cc3d
00000010: 4447 3fbc 7e79 1fbd 6e05 173e 4f82 953d
00000020: 97d3 5d3d 964a f43c 7e23 163b bbbb d43d
00000030: 361b d83d 986e a53d 6cf2 3b3c c33d aa3c
00000040: 2c3d ce3d de69 63bd 8601 c33d 3321 2abd
00000050: 9a93 aa3d ccb2 0b3d a72f 643d 7836 533c
00000060: 52fd 913d 20e6 c73d be03 dc3d 8823 483d
00000070: eb6c 9dbd c559 8ebd fa70 1cbd 1b99 90bc
00000080: bfef 603d 838f 683c 646a a63d d267 ca3d
00000090: a568 09bd 57c9 5c3d 9b7d a63d b06f cb3b
000000a0: 16f2 6d3d 6402 cdbc c096 fd3c ebbf ee3b
000000b0: 6370 a53c 57e7 bc3d fd71 563d 1edd f03d
000000c0: 6589 9a3d d05a c03d 5cdb 35bd b2df c53c
000000d0: 8018 81bd fe6e ee3d 8e09 f2bc 1811 243c
000000e0: 7c67 2b3d 03a8 babc 5ee0 9d3d a5d6 4c3c
000000f0: 01b2 213c 6cdc 103d 629d da3c 96dd 6c3c
00000100: 181b 8fbc facb e53c baf7 353d 6edd 78bd
00000110: 0bef 7a3d 84ae 7abb 732e 993d 96d5 e0bc
00000120: 849f 943d e667 393d d73b bebd 970d 82bd
00000130: 8327 a83d 5d9c 00bd e879 85bd dc97 d23d
00000140: fab7 df3d b560 563d 84d4 0dbc 5746 833c
00000150: d095 2ebc 62cd 823d 84f6 acbc 6fe2 ebbd
00000160: 24d9 26bc d83d 083e ae22 90bc bb63 ca3d
00000170: a532 2cbd 08ef de3c 4dae 36bd 6148 dd3d
00000180: e032 28bd bba4 943c 225f ac3d 6c71 f63d
00000190: 5acb 943d dc6a d43d 3df4 24bc 7a0e 86bc
000001a0: a472 1e3d 02aa aa3d 6592 353d 8000 113d
000001b0: 0603 7f3d 723c a13d 4592 97bc c294 18bd
000001c0: 213b 3e3d 613f 563d e8e9 48bd 4d3f 55bd
000001d0: eceb 76bc a8c3 403d 71cb 6f3d 968a e53d
000001e0: 3768 aabd 40f0 4d3d b142 153d 0934 85bc
000001f0: a723 9e3d b9da 4cbd 2406 aebd b93b 6fbd
00000200: c4cd 833d f1d0 1ebd b904 ad3d 77a0 f1bc
00000210: d639 453d ceaa 18bd 81a6 b0bd 7415 c2bc
00000220: 2498 1b3d 381e 82bd bbca 1d3d d96e 56bd
00000230: c611 90bd fa4a a3bd 56ac 46bd 5e8c 213d
00000240: ffcd 8ebd 9109 cfbd e5c7 fdbc 4431 bdbc
00000250: 1738 76bd 2bd3 853c a49b 893d 817f de3c
00000260: 1829 c03d 59fa 163d 2a19 adbd efa4 8d3d
00000270: 799d d3bd 34a5 a23d 3b64 e83c cdfb a4bd
00000280: e763 f23d ff4a 42bd a125 b0bd f664 e8bb
00000290: efe1 3bbd 968d 603d c4ab 893d c9e8 bf3d
000002a0: a4d8 22bd 209a 3437 5700 ffbc 7698 82bd
000002b0: d7fe 5dbd a434 b5bd ec99 103c c24a 5a3b
000002c0: b03c 89bc a182 5a3d 55df 6e3c 814c bbbd
000002d0: e764 6ebc bf0b 84bd fbeb 75bd bea7 8a3d
000002e0: 952c 3cbd d1d7 8f3d 8781 a43d 6eda 483b
000002f0: 1fbd 983d cdab 733d a4c0 b03d 5487 383c
00000300: 8d67 d5bd 7819 4fbc 88c9 1abd e8d2 8c3d
00000310: 6a8d d93c 6134 5d3c a2bf 9e3d cd59 0b3e
00000320: 31b3 873c f9af 41bc 741e 02bd afe4 bc3d
00000330: 8fa1 c43d 7a68 9abd 887a b9bc b985 81bc
00000340: 9efe a33c c1f9 aa3b b457 6a3d 8b7d 753d
00000350: c900 7ebd 34ab 0fbd 36ba 77bd e001 0a3e
00000360: 3e41 46bd c86f b3bd 55b7 24bd 9752 363d
00000370: 1c41 123d 0a12 52bc 65be 67bc 9a14 113d
00000380: 53fa f23d af78 873d d0a0 763d 2740 bb3d
00000390: 66e3 9abc b470 953d 63c6 1b3d 091b 4cbc
000003a0: 0ee9 28bd 3dbe e2bb 7c41 113d f8b3 643d
000003b0: 2b53 c43d a1db 773d 2897 c8bc 2707 debd
000003c0: 42af d23d edb6 0cbc 9cb9 ca3d 1305 b0bc
000003d0: 7c42 75bd b845 013d da17 673c dddd d0bc
000003e0: 2950 9c3d 6c3e 363d aae3 143b 5db7 9abd
000003f0: 2b3a a9bd 1b77 173e b8fe 97bc 43e7 9cbd

bias f4 [180]
-0.053718332 -7.069683e-05 0.043187212 -0.0062207924 -0.018290391 -0.007271514 0.005227939 -0.056605693
0.087308265 -0.018261986 0.07164395 0.058602825 -0.030362556 0.07099051 0.06323392 0.0053003696
0.05223148 -0.023895081 -0.07255584 0.075334705 0.091460146 -0.03204785 0.085329875 -0.027554274
-0.09432048 -0.053518243 0.061711848 0.051716346 -0.009074232 0.023124171 0.035531264 -0.034569185
0.04586588 0.029380059 -0.05870644 -0.009710142 0.0059788385 0.00843954 -0.0036614416 -0.0685608
-0.00023128206 -0.06290652 -0.047363207 -0.03251966 0.013875847 0.08285579 0.05104689 -0.0016080007
-0.045887962 0.026365474 -0.007650487 0.06392706 0.038063996 -0.0026575462 0.07913412 0.06614797
0.097418085 -0.06471148 -0.003615087 -0.080380656 0.028198276 0.06645186 -0.015369698 -0.04870415
-0.016654808 0.053572986 -0.052042224 0.042184435 0.06497434 -0.0009218156 0.07810679 0.06322065
-0.056849435 0.02310263 -0.054907955 0.098842 0.052715313 0.018945646 0.067529924 0.031446107
0.028994195 -0.040018808 -0.0052059726 0.09565491 0.0915387 0.049051777 0.07395513 0.022261705
0.059873573 0.049385227 0.07440184 0.029689519 -0.035991598 0.014682635 -0.07195624 0.046003703
0.085699104 -0.015731808 0.04386477 -0.047244225 0.09561734 0.01097672 -0.0702576 -0.078391545
-0.02454467 -0.010188524 -0.014899425 0.031206183 -0.06877062 -0.025657719 -0.011687506 0.087437175
0.09948991 -0.023487935 -0.052117016 0.05983295 -0.054866005 -0.0752125 0.099714525 0.021255847
-0.02216419 0.0014674198 0.08156725 0.0019237453 -0.08565633 0.07486776 -0.03515023 0.0068130316
0.025842015 -0.01979555 -0.00647347 0.02379749 -0.04745898 0.06625215 -0.060656007 -0.05673751
0.062963635 0.013738246 -0.081479035 -0.031219363 -0.034370136 0.053437866 0.013663801 -0.07837735
0.060026966 -0.0425898 0.10271595 -0.036200218 0.035140913 -0.08606657 -0.05847288 -0.06754393
0.026812261 0.011280702 0.0077649853 0.011905956 0.020490367 -0.02591297 -0.05662194 -0.049153797
0.04217233 -0.060884215 0.042788986 0.0475857 0.038683295 0.046767265 0.053899042 0.080905646
-0.03219648 0.10334005 0.031203663 -0.043795824 -0.021237915 -0.011429082 0.009276426 -0.032856297
0.039363664 0.09439915 0.081109256 0.027135469
00000000: c107 5cbd 1243 94b8 13e5 303d cad7 cbbb
00000010: bbd5 95bc e145 eebb 224f ab3b 5fdb 67bd
00000020: adce b23d 299a 95bc 10ba 923d 8409 703d
00000030: e5ba f8bc 7963 913d c980 813d b9ae ad3b
00000040: adf0 553d 9ebf c3bc 2898 94bd 1549 9a3d
00000050: 754f bb3d 9b44 03bd 6ec1 ae3d 80b9 e1bc
00000060: 192b c1bd f235 5bbd 90c5 7c3d 85d4 533d
00000070: 16ac 14bc e76e bd3c 3b89 113d 6b98 0dbd
00000080: dcdd 3b3d 73ae f03c 2a76 70bd 4a17 1fbc
00000090: 22ea c33b ff45 0a3c ccf4 6fbb 9b69 8cbd
000000a0: 4e84 72b9 22d5 80bd ecff 41bd 5633 05bd
000000b0: 8557 633c 4cb0 a93d 8b16 513d 8dc3 d2ba
000000c0: 04f5 3bbd 68fc d73c f0b0 fabb 31ec 823d
000000d0: fee8 1b3d 3a2a 2ebb 1211 a23d 9678 873d
000000e0: 2283 c73d 7487 84bd 18eb 6cbb 9d9e a4bd
000000f0: 1200 e73c ea17 883d 30d1 7bbc 017e 47bd
00000100: aa6f 88bc 596f 5b3d 3a2a 55bd 96c9 2c3d
00000110: 4411 853d ffa5 71ba 74f6 9f3d d479 813d
00000120: f4da 68bd ba41 bd3c 2ae7 60bd ad6d ca3d
00000130: 03ec 573d e633 9b3c 214d 8a3d a2cd 003d
00000140: 3c85 ed3c c3ea 23bd dd96 aabb b9e6 c33d
00000150: a478 bb3d 84ea 483d ca75 973d 2e5e b63c
00000160: fe3d 753d 2a48 4a3d fe5f 983d 6f37 f33c
00000170: ed6b 13bd 6f8f 703c cb5d 93bd 616e 3c3d
00000180: 0383 af3d fedf 80bc 8cab 333d 2983 41bd
00000190: 06d3 c33d b3d7 333c 37e3 8fbd bf8b a0bd
000001a0: e711 c9bc c4ed 26bc b81c 74bc 1ca4 ff3c
000001b0: 9cd7 8cbd 2330 d2bc f47c 3fbc 4312 b33d
000001c0: 5ec1 cb3d c569 c0bc a778 55bd 6513 753d
000001d0: 2dbb 60bd 0309 9abd 2137 cc3d be20 ae3c
000001e0: ad91 b5bc 7056 c03a bb0c a73d 2e26 fc3a
000001f0: 966c afbd 4554 993d b0f9 0fbd da3f df3b
00000200: a2b2 d33c 472a a2bc 671f d4bb f4f2 c23c
00000210: 5964 42bd 35af 873d 6f72 78bd 9765 68bd
00000220: 14f3 803d 6116 613c 7bde a6bd c0bf ffbc
00000230: b3c7 0cbd aae1 5a3d 23de 5f3c 4e84 a0bd
00000240: d6de 753d a472 2ebd bd5c d23d ae46 14bd
00000250: ebef 0f3d ab43 b0bd 4281 6fbd 7954 8abd
00000260: 63a5 db3c b2d2 383c 6b71 fe3b 3311 433c
00000270: 6adb a73c 7047 d4bc 68ec 67bd 7e55 49bd
00000280: e5bc 2c3d ba61 79bd 8143 2f3d 39e9 423d
00000290: 6072 1e3d 088f 3f3d 3ec5 5c3d dcb1 a53d
000002a0: 75e0 03bd f3a3 d33d d39e ff3c 4063 33bd
000002b0: 23fb adbc 0b41 3bbc 27fc 173c 5394 06bd
000002c0: cb3b 213d 5754 c13d 9c1c a63d 344b de3c

weight f4 [1, 180]
-0.06262334 0.10787313 -0.043524828 -0.014872094 0.11500241 -0.052475512 -0.042659406 0.17740424
-0.08940581 -0.08845472 -0.0569604 -0.05815545 0.1059106 -0.09097352 0.09238334 -0.08533335
0.09920326 0.14305791 -0.06839562 -0.029080728 -0.08430686 -0.04109387 -0.05242215 0.08239332
0.069774926 0.1860299 0.20584054 -0.07444802 0.07758141 0.13990164 -0.081111595 -0.056715794
-0.068567924 -0.09734291 -0.0824899 0.15263568 -0.051535167 0.09842689 0.10929441 0.1440459
-0.027307333 0.15859495 0.05936383 0.16426672 0.15917815 -0.11911038 -0.09218137 -0.097375005
-0.10961758 -0.092488185 -0.06854358 -0.05762027 0.08082132 -0.09124792 -0.09345462 0.11722405
-0.05875932 -0.13683166 -0.031535327 -0.11482104 -0.051009927 -0.09777498 0.15722841 0.14284724
0.119185366 -0.054200925 0.17554627 -0.10048336 -0.038188037 0.10194941 -0.09959761 0.092447296
0.027066298 0.055302292 0.12627767 -0.10039209 -0.05001116 -0.10653965 -0.032090567 0.10543281
0.18806522 -0.04688119 0.15311366 -0.050962154 0.052367367 0.1432514 -0.057812896 0.06448349
0.1417317 0.1428383 0.048608333 0.097091325 -0.053453084 0.12634021 -0.08339438 0.050940674
0.13226545 0.10955089 0.056055438 -0.015139764 -0.09772548 -0.12432689 0.13065368 -0.0721927
-0.089112215 -0.06783093 0.10922803 -0.036403347 -0.08752307 0.12459405 0.13722508 -0.08416755
-0.08130956 0.07689152 -0.09185646 0.025447685 0.11252111 0.1723538 -0.02812626 -0.1175298
0.10851451 -0.07809465 0.17875864 -0.14121357 0.117059045 0.09920426 0.04259016 -0.099709116
-0.041546505 -0.030161472 0.06439693 0.102363445 -0.027679775 -0.0648358 0.15895031 -0.13256983
0.06911007 0.06124026 -0.07921823 -0.20181628 -0.15847379 -0.15884921 0.092777975 0.10663426
0.08686604 0.09160125 -0.09212904 -0.08041671 -0.12336141 0.07316337 -0.0792188 -0.08472909
-0.1355058 -0.035282824 0.16876505 -0.04949816 -0.08886055 0.089371644 0.0737581 0.09675263
0.12380258 0.109769195 -0.17862895 -0.08670221 -0.041665778 0.06901512 0.05771311 -0.050748043
0.055103622 -0.084802456 -0.15084314 -0.06864501 -0.09783849 -0.053660553 0.08752456 0.13138168
-0.066829674 -0.0379483 -0.053960416 -0.2571184
00000000: aa40 80bd 96ec dc3d 1747 32bd 15aa 73bc
00000010: 6286 eb3d 90f0 56bd a1bb 2ebd 75a9 353e
00000020: 651a b7bd c027 b5bd 4f4f 69bd 6934 6ebd
00000030: a8e7 d83d 5350 babd 7a33 bd3d 40c3 aebd
00000040: 142b cb3d c67d 123e 0113 8cbd b53a eebc
00000050: 13a9 acbd 0c52 28bd 9cb8 56bd d4bd a83d
00000060: 28e6 8e3d 9f7e 3e3e ddc7 523e 3478 98bd
00000070: 01e3 9e3d 6042 0f3e d61d a6bd d24e 68bd
00000080: 576d 8cbd b85b c7bd 77f0 a8bd 874c 1c3e
00000090: 8a16 53bd 0a94 c93d bfd5 df3d c580 133e
000000a0: a1b3 dfbc b766 223e 7d27 733d 8935 283e
000000b0: 99ff 223e 25f0 f3bd 96c9 bcbd 8c6c c7bd
000000c0: 2f7f e0bd 726a bdbd 9460 8cbd 3b03 6cbd
000000d0: a685 a53d 31e0 babd 2365 bfbd 2a13 f03d
000000e0: 9dad 70bd 991d 0cbe 302b 01bd 4b27 ebbd
000000f0: c9ef 50bd 403e c8bd 7c00 213e 8c46 123e
00000100: 7517 f43d ca01 5ebd 67c2 333e 38ca cdbd
00000110: 0f6b 1cbd daca d03d d5f9 cbbd 0255 bd3d
00000120: 24ba dd3c a884 623d ef4e 013e 5e9a cdbd
00000130: 81d8 4cbd 7631 dabd 6671 03bd 28ed d73d
00000140: 2b94 403e 7e06 40bd d4c9 1c3e b1bd 50bd
00000150: 2a7f 563d 7fb0 123e 37cd 6cbd ec0f 843d
00000160: 1d22 113e 3444 123e 8819 473d d1d7 c63d
00000170: 9ff1 5abd 545f 013e acca aabd 2ba7 503d
00000180: 9870 073e 385c e03d 639a 653d c60c 78bc
00000190: 4c24 c8bd 199f febd 14ca 053e c4d9 93bd
000001a0: 7780 b6bd f1ea 8abd f2b2 df3d ad1b 15bd
000001b0: 4c3f b3bd 2a2b ff3d bb84 0c3e 0960 acbd
000001c0: a085 a6bd 4d79 9d3d 3d1f bcbd aa77 d03c
000001d0: 7871 e63d 847d 303e 0b69 e6bc 77b3 f0bd
000001e0: db3c de3d 16f0 9fbd 810c 373e 4a9a 10be
000001f0: a7bc ef3d 9a2b cb3d 0573 2e3d 4b34 ccbd
00000200: ab2c 2abd 3115 f7bc 8ae2 833d eda3 d13d
00000210: b2c0 e2bc a2c8 84bd dfc3 223e 63c0 07be
00000220: 9589 8d3d 11d7 7a3d 2b3d a2bd eda8 4ebe
00000230: f446 22be 5ea9 22be 6102 be3d 1063 da3d
00000240: d3e6 b13d 7099 bb3d 26ae bcbd 84b1 a4bd
00000250: e8a4 fcbd add6 953d 773d a2bd 7286 adbd
00000260: 08c2 0abe b984 10bd bfd0 2c3e 95be 4abd
00000270: 85fc b5bd 7b08 b73d 7d0e 973d 3e26 c63d
00000280: 358c fd3d acce e03d 82ea 36be ee90 b1bd
00000290: bca9 2abd cd57 8d3d 9564 6c3d 2edd 4fbd
000002a0: 56b4 613d e9ac adbd a076 1abe c195 8cbd
000002b0: 8c5f c8bd 2bcb 5bbd 1440 b33d eb88 063e
000002c0: ffdd 88bd ad6f 1bbd 9905 5dbd 06a5 83be
